Tue Aug 20 11:58:19 AM CEST 2024
****GENERATING REPS FOR PYTHIA****
Loading checkpoint shards:   0%|          | 0/2 [00:00<?, ?it/s]Loading checkpoint shards:  50%|█████     | 1/2 [00:03<00:03,  3.97s/it]Loading checkpoint shards: 100%|██████████| 2/2 [00:05<00:00,  2.58s/it]Loading checkpoint shards: 100%|██████████| 2/2 [00:05<00:00,  2.79s/it]
Special tokens have been added in the vocabulary, make sure the associated word embeddings are fine-tuned or trained.
GPTNeoXForCausalLM(
  (gpt_neox): GPTNeoXModel(
    (embed_in): Embedding(50432, 4096)
    (emb_dropout): Dropout(p=0.0, inplace=False)
    (layers): ModuleList(
      (0-31): 32 x GPTNeoXLayer(
        (input_layernorm): LayerNorm((4096,), eps=1e-05, elementwise_affine=True)
        (post_attention_layernorm): LayerNorm((4096,), eps=1e-05, elementwise_affine=True)
        (post_attention_dropout): Dropout(p=0.0, inplace=False)
        (post_mlp_dropout): Dropout(p=0.0, inplace=False)
        (attention): GPTNeoXAttention(
          (rotary_emb): GPTNeoXRotaryEmbedding()
          (query_key_value): Linear(in_features=4096, out_features=12288, bias=True)
          (dense): Linear(in_features=4096, out_features=4096, bias=True)
          (attention_dropout): Dropout(p=0.0, inplace=False)
        )
        (mlp): GPTNeoXMLP(
          (dense_h_to_4h): Linear(in_features=4096, out_features=16384, bias=True)
          (dense_4h_to_h): Linear(in_features=16384, out_features=4096, bias=True)
          (act): GELUActivation()
        )
      )
    )
    (final_layer_norm): LayerNorm((4096,), eps=1e-05, elementwise_affine=True)
  )
  (embed_out): Linear(in_features=4096, out_features=50432, bias=False)
)
 GPTNeoXForCausalLM(
  (gpt_neox): GPTNeoXModel(
    (embed_in): Embedding(50432, 4096)
    (emb_dropout): Dropout(p=0.0, inplace=False)
    (layers): ModuleList(
      (0-31): 32 x GPTNeoXLayer(
        (input_layernorm): LayerNorm((4096,), eps=1e-05, elementwise_affine=True)
        (post_attention_layernorm): LayerNorm((4096,), eps=1e-05, elementwise_affine=True)
        (post_attention_dropout): Dropout(p=0.0, inplace=False)
        (post_mlp_dropout): Dropout(p=0.0, inplace=False)
        (attention): GPTNeoXAttention(
          (rotary_emb): GPTNeoXRotaryEmbedding()
          (query_key_value): Linear(in_features=4096, out_features=12288, bias=True)
          (dense): Linear(in_features=4096, out_features=4096, bias=True)
          (attention_dropout): Dropout(p=0.0, inplace=False)
        )
        (mlp): GPTNeoXMLP(
          (dense_h_to_4h): Linear(in_features=4096, out_features=16384, bias=True)
          (dense_4h_to_h): Linear(in_features=16384, out_features=4096, bias=True)
          (act): GELUActivation()
        )
      )
    )
    (final_layer_norm): LayerNorm((4096,), eps=1e-05, elementwise_affine=True)
  )
  (embed_out): Linear(in_features=4096, out_features=50432, bias=False)
)
gpt_neox GPTNeoXModel(
  (embed_in): Embedding(50432, 4096)
  (emb_dropout): Dropout(p=0.0, inplace=False)
  (layers): ModuleList(
    (0-31): 32 x GPTNeoXLayer(
      (input_layernorm): LayerNorm((4096,), eps=1e-05, elementwise_affine=True)
      (post_attention_layernorm): LayerNorm((4096,), eps=1e-05, elementwise_affine=True)
      (post_attention_dropout): Dropout(p=0.0, inplace=False)
      (post_mlp_dropout): Dropout(p=0.0, inplace=False)
      (attention): GPTNeoXAttention(
        (rotary_emb): GPTNeoXRotaryEmbedding()
        (query_key_value): Linear(in_features=4096, out_features=12288, bias=True)
        (dense): Linear(in_features=4096, out_features=4096, bias=True)
        (attention_dropout): Dropout(p=0.0, inplace=False)
      )
      (mlp): GPTNeoXMLP(
        (dense_h_to_4h): Linear(in_features=4096, out_features=16384, bias=True)
        (dense_4h_to_h): Linear(in_features=16384, out_features=4096, bias=True)
        (act): GELUActivation()
      )
    )
  )
  (final_layer_norm): LayerNorm((4096,), eps=1e-05, elementwise_affine=True)
)
gpt_neox.embed_in Embedding(50432, 4096)
gpt_neox.emb_dropout Dropout(p=0.0, inplace=False)
gpt_neox.layers ModuleList(
  (0-31): 32 x GPTNeoXLayer(
    (input_layernorm): LayerNorm((4096,), eps=1e-05, elementwise_affine=True)
    (post_attention_layernorm): LayerNorm((4096,), eps=1e-05, elementwise_affine=True)
    (post_attention_dropout): Dropout(p=0.0, inplace=False)
    (post_mlp_dropout): Dropout(p=0.0, inplace=False)
    (attention): GPTNeoXAttention(
      (rotary_emb): GPTNeoXRotaryEmbedding()
      (query_key_value): Linear(in_features=4096, out_features=12288, bias=True)
      (dense): Linear(in_features=4096, out_features=4096, bias=True)
      (attention_dropout): Dropout(p=0.0, inplace=False)
    )
    (mlp): GPTNeoXMLP(
      (dense_h_to_4h): Linear(in_features=4096, out_features=16384, bias=True)
      (dense_4h_to_h): Linear(in_features=16384, out_features=4096, bias=True)
      (act): GELUActivation()
    )
  )
)
gpt_neox.layers.0 GPTNeoXLayer(
  (input_layernorm): LayerNorm((4096,), eps=1e-05, elementwise_affine=True)
  (post_attention_layernorm): LayerNorm((4096,), eps=1e-05, elementwise_affine=True)
  (post_attention_dropout): Dropout(p=0.0, inplace=False)
  (post_mlp_dropout): Dropout(p=0.0, inplace=False)
  (attention): GPTNeoXAttention(
    (rotary_emb): GPTNeoXRotaryEmbedding()
    (query_key_value): Linear(in_features=4096, out_features=12288, bias=True)
    (dense): Linear(in_features=4096, out_features=4096, bias=True)
    (attention_dropout): Dropout(p=0.0, inplace=False)
  )
  (mlp): GPTNeoXMLP(
    (dense_h_to_4h): Linear(in_features=4096, out_features=16384, bias=True)
    (dense_4h_to_h): Linear(in_features=16384, out_features=4096, bias=True)
    (act): GELUActivation()
  )
)
gpt_neox.layers.0.input_layernorm LayerNorm((4096,), eps=1e-05, elementwise_affine=True)
gpt_neox.layers.0.post_attention_layernorm LayerNorm((4096,), eps=1e-05, elementwise_affine=True)
gpt_neox.layers.0.post_attention_dropout Dropout(p=0.0, inplace=False)
gpt_neox.layers.0.post_mlp_dropout Dropout(p=0.0, inplace=False)
gpt_neox.layers.0.attention GPTNeoXAttention(
  (rotary_emb): GPTNeoXRotaryEmbedding()
  (query_key_value): Linear(in_features=4096, out_features=12288, bias=True)
  (dense): Linear(in_features=4096, out_features=4096, bias=True)
  (attention_dropout): Dropout(p=0.0, inplace=False)
)
gpt_neox.layers.0.attention.rotary_emb GPTNeoXRotaryEmbedding()
gpt_neox.layers.0.attention.query_key_value Linear(in_features=4096, out_features=12288, bias=True)
gpt_neox.layers.0.attention.dense Linear(in_features=4096, out_features=4096, bias=True)
gpt_neox.layers.0.attention.attention_dropout Dropout(p=0.0, inplace=False)
gpt_neox.layers.0.mlp GPTNeoXMLP(
  (dense_h_to_4h): Linear(in_features=4096, out_features=16384, bias=True)
  (dense_4h_to_h): Linear(in_features=16384, out_features=4096, bias=True)
  (act): GELUActivation()
)
gpt_neox.layers.0.mlp.dense_h_to_4h Linear(in_features=4096, out_features=16384, bias=True)
gpt_neox.layers.0.mlp.dense_4h_to_h Linear(in_features=16384, out_features=4096, bias=True)
gpt_neox.layers.0.mlp.act GELUActivation()
gpt_neox.layers.1 GPTNeoXLayer(
  (input_layernorm): LayerNorm((4096,), eps=1e-05, elementwise_affine=True)
  (post_attention_layernorm): LayerNorm((4096,), eps=1e-05, elementwise_affine=True)
  (post_attention_dropout): Dropout(p=0.0, inplace=False)
  (post_mlp_dropout): Dropout(p=0.0, inplace=False)
  (attention): GPTNeoXAttention(
    (rotary_emb): GPTNeoXRotaryEmbedding()
    (query_key_value): Linear(in_features=4096, out_features=12288, bias=True)
    (dense): Linear(in_features=4096, out_features=4096, bias=True)
    (attention_dropout): Dropout(p=0.0, inplace=False)
  )
  (mlp): GPTNeoXMLP(
    (dense_h_to_4h): Linear(in_features=4096, out_features=16384, bias=True)
    (dense_4h_to_h): Linear(in_features=16384, out_features=4096, bias=True)
    (act): GELUActivation()
  )
)
gpt_neox.layers.1.input_layernorm LayerNorm((4096,), eps=1e-05, elementwise_affine=True)
gpt_neox.layers.1.post_attention_layernorm LayerNorm((4096,), eps=1e-05, elementwise_affine=True)
gpt_neox.layers.1.post_attention_dropout Dropout(p=0.0, inplace=False)
gpt_neox.layers.1.post_mlp_dropout Dropout(p=0.0, inplace=False)
gpt_neox.layers.1.attention GPTNeoXAttention(
  (rotary_emb): GPTNeoXRotaryEmbedding()
  (query_key_value): Linear(in_features=4096, out_features=12288, bias=True)
  (dense): Linear(in_features=4096, out_features=4096, bias=True)
  (attention_dropout): Dropout(p=0.0, inplace=False)
)
gpt_neox.layers.1.attention.rotary_emb GPTNeoXRotaryEmbedding()
gpt_neox.layers.1.attention.query_key_value Linear(in_features=4096, out_features=12288, bias=True)
gpt_neox.layers.1.attention.dense Linear(in_features=4096, out_features=4096, bias=True)
gpt_neox.layers.1.attention.attention_dropout Dropout(p=0.0, inplace=False)
gpt_neox.layers.1.mlp GPTNeoXMLP(
  (dense_h_to_4h): Linear(in_features=4096, out_features=16384, bias=True)
  (dense_4h_to_h): Linear(in_features=16384, out_features=4096, bias=True)
  (act): GELUActivation()
)
gpt_neox.layers.1.mlp.dense_h_to_4h Linear(in_features=4096, out_features=16384, bias=True)
gpt_neox.layers.1.mlp.dense_4h_to_h Linear(in_features=16384, out_features=4096, bias=True)
gpt_neox.layers.1.mlp.act GELUActivation()
gpt_neox.layers.2 GPTNeoXLayer(
  (input_layernorm): LayerNorm((4096,), eps=1e-05, elementwise_affine=True)
  (post_attention_layernorm): LayerNorm((4096,), eps=1e-05, elementwise_affine=True)
  (post_attention_dropout): Dropout(p=0.0, inplace=False)
  (post_mlp_dropout): Dropout(p=0.0, inplace=False)
  (attention): GPTNeoXAttention(
    (rotary_emb): GPTNeoXRotaryEmbedding()
    (query_key_value): Linear(in_features=4096, out_features=12288, bias=True)
    (dense): Linear(in_features=4096, out_features=4096, bias=True)
    (attention_dropout): Dropout(p=0.0, inplace=False)
  )
  (mlp): GPTNeoXMLP(
    (dense_h_to_4h): Linear(in_features=4096, out_features=16384, bias=True)
    (dense_4h_to_h): Linear(in_features=16384, out_features=4096, bias=True)
    (act): GELUActivation()
  )
)
gpt_neox.layers.2.input_layernorm LayerNorm((4096,), eps=1e-05, elementwise_affine=True)
gpt_neox.layers.2.post_attention_layernorm LayerNorm((4096,), eps=1e-05, elementwise_affine=True)
gpt_neox.layers.2.post_attention_dropout Dropout(p=0.0, inplace=False)
gpt_neox.layers.2.post_mlp_dropout Dropout(p=0.0, inplace=False)
gpt_neox.layers.2.attention GPTNeoXAttention(
  (rotary_emb): GPTNeoXRotaryEmbedding()
  (query_key_value): Linear(in_features=4096, out_features=12288, bias=True)
  (dense): Linear(in_features=4096, out_features=4096, bias=True)
  (attention_dropout): Dropout(p=0.0, inplace=False)
)
gpt_neox.layers.2.attention.rotary_emb GPTNeoXRotaryEmbedding()
gpt_neox.layers.2.attention.query_key_value Linear(in_features=4096, out_features=12288, bias=True)
gpt_neox.layers.2.attention.dense Linear(in_features=4096, out_features=4096, bias=True)
gpt_neox.layers.2.attention.attention_dropout Dropout(p=0.0, inplace=False)
gpt_neox.layers.2.mlp GPTNeoXMLP(
  (dense_h_to_4h): Linear(in_features=4096, out_features=16384, bias=True)
  (dense_4h_to_h): Linear(in_features=16384, out_features=4096, bias=True)
  (act): GELUActivation()
)
gpt_neox.layers.2.mlp.dense_h_to_4h Linear(in_features=4096, out_features=16384, bias=True)
gpt_neox.layers.2.mlp.dense_4h_to_h Linear(in_features=16384, out_features=4096, bias=True)
gpt_neox.layers.2.mlp.act GELUActivation()
gpt_neox.layers.3 GPTNeoXLayer(
  (input_layernorm): LayerNorm((4096,), eps=1e-05, elementwise_affine=True)
  (post_attention_layernorm): LayerNorm((4096,), eps=1e-05, elementwise_affine=True)
  (post_attention_dropout): Dropout(p=0.0, inplace=False)
  (post_mlp_dropout): Dropout(p=0.0, inplace=False)
  (attention): GPTNeoXAttention(
    (rotary_emb): GPTNeoXRotaryEmbedding()
    (query_key_value): Linear(in_features=4096, out_features=12288, bias=True)
    (dense): Linear(in_features=4096, out_features=4096, bias=True)
    (attention_dropout): Dropout(p=0.0, inplace=False)
  )
  (mlp): GPTNeoXMLP(
    (dense_h_to_4h): Linear(in_features=4096, out_features=16384, bias=True)
    (dense_4h_to_h): Linear(in_features=16384, out_features=4096, bias=True)
    (act): GELUActivation()
  )
)
gpt_neox.layers.3.input_layernorm LayerNorm((4096,), eps=1e-05, elementwise_affine=True)
gpt_neox.layers.3.post_attention_layernorm LayerNorm((4096,), eps=1e-05, elementwise_affine=True)
gpt_neox.layers.3.post_attention_dropout Dropout(p=0.0, inplace=False)
gpt_neox.layers.3.post_mlp_dropout Dropout(p=0.0, inplace=False)
gpt_neox.layers.3.attention GPTNeoXAttention(
  (rotary_emb): GPTNeoXRotaryEmbedding()
  (query_key_value): Linear(in_features=4096, out_features=12288, bias=True)
  (dense): Linear(in_features=4096, out_features=4096, bias=True)
  (attention_dropout): Dropout(p=0.0, inplace=False)
)
gpt_neox.layers.3.attention.rotary_emb GPTNeoXRotaryEmbedding()
gpt_neox.layers.3.attention.query_key_value Linear(in_features=4096, out_features=12288, bias=True)
gpt_neox.layers.3.attention.dense Linear(in_features=4096, out_features=4096, bias=True)
gpt_neox.layers.3.attention.attention_dropout Dropout(p=0.0, inplace=False)
gpt_neox.layers.3.mlp GPTNeoXMLP(
  (dense_h_to_4h): Linear(in_features=4096, out_features=16384, bias=True)
  (dense_4h_to_h): Linear(in_features=16384, out_features=4096, bias=True)
  (act): GELUActivation()
)
gpt_neox.layers.3.mlp.dense_h_to_4h Linear(in_features=4096, out_features=16384, bias=True)
gpt_neox.layers.3.mlp.dense_4h_to_h Linear(in_features=16384, out_features=4096, bias=True)
gpt_neox.layers.3.mlp.act GELUActivation()
gpt_neox.layers.4 GPTNeoXLayer(
  (input_layernorm): LayerNorm((4096,), eps=1e-05, elementwise_affine=True)
  (post_attention_layernorm): LayerNorm((4096,), eps=1e-05, elementwise_affine=True)
  (post_attention_dropout): Dropout(p=0.0, inplace=False)
  (post_mlp_dropout): Dropout(p=0.0, inplace=False)
  (attention): GPTNeoXAttention(
    (rotary_emb): GPTNeoXRotaryEmbedding()
    (query_key_value): Linear(in_features=4096, out_features=12288, bias=True)
    (dense): Linear(in_features=4096, out_features=4096, bias=True)
    (attention_dropout): Dropout(p=0.0, inplace=False)
  )
  (mlp): GPTNeoXMLP(
    (dense_h_to_4h): Linear(in_features=4096, out_features=16384, bias=True)
    (dense_4h_to_h): Linear(in_features=16384, out_features=4096, bias=True)
    (act): GELUActivation()
  )
)
gpt_neox.layers.4.input_layernorm LayerNorm((4096,), eps=1e-05, elementwise_affine=True)
gpt_neox.layers.4.post_attention_layernorm LayerNorm((4096,), eps=1e-05, elementwise_affine=True)
gpt_neox.layers.4.post_attention_dropout Dropout(p=0.0, inplace=False)
gpt_neox.layers.4.post_mlp_dropout Dropout(p=0.0, inplace=False)
gpt_neox.layers.4.attention GPTNeoXAttention(
  (rotary_emb): GPTNeoXRotaryEmbedding()
  (query_key_value): Linear(in_features=4096, out_features=12288, bias=True)
  (dense): Linear(in_features=4096, out_features=4096, bias=True)
  (attention_dropout): Dropout(p=0.0, inplace=False)
)
gpt_neox.layers.4.attention.rotary_emb GPTNeoXRotaryEmbedding()
gpt_neox.layers.4.attention.query_key_value Linear(in_features=4096, out_features=12288, bias=True)
gpt_neox.layers.4.attention.dense Linear(in_features=4096, out_features=4096, bias=True)
gpt_neox.layers.4.attention.attention_dropout Dropout(p=0.0, inplace=False)
gpt_neox.layers.4.mlp GPTNeoXMLP(
  (dense_h_to_4h): Linear(in_features=4096, out_features=16384, bias=True)
  (dense_4h_to_h): Linear(in_features=16384, out_features=4096, bias=True)
  (act): GELUActivation()
)
gpt_neox.layers.4.mlp.dense_h_to_4h Linear(in_features=4096, out_features=16384, bias=True)
gpt_neox.layers.4.mlp.dense_4h_to_h Linear(in_features=16384, out_features=4096, bias=True)
gpt_neox.layers.4.mlp.act GELUActivation()
gpt_neox.layers.5 GPTNeoXLayer(
  (input_layernorm): LayerNorm((4096,), eps=1e-05, elementwise_affine=True)
  (post_attention_layernorm): LayerNorm((4096,), eps=1e-05, elementwise_affine=True)
  (post_attention_dropout): Dropout(p=0.0, inplace=False)
  (post_mlp_dropout): Dropout(p=0.0, inplace=False)
  (attention): GPTNeoXAttention(
    (rotary_emb): GPTNeoXRotaryEmbedding()
    (query_key_value): Linear(in_features=4096, out_features=12288, bias=True)
    (dense): Linear(in_features=4096, out_features=4096, bias=True)
    (attention_dropout): Dropout(p=0.0, inplace=False)
  )
  (mlp): GPTNeoXMLP(
    (dense_h_to_4h): Linear(in_features=4096, out_features=16384, bias=True)
    (dense_4h_to_h): Linear(in_features=16384, out_features=4096, bias=True)
    (act): GELUActivation()
  )
)
gpt_neox.layers.5.input_layernorm LayerNorm((4096,), eps=1e-05, elementwise_affine=True)
gpt_neox.layers.5.post_attention_layernorm LayerNorm((4096,), eps=1e-05, elementwise_affine=True)
gpt_neox.layers.5.post_attention_dropout Dropout(p=0.0, inplace=False)
gpt_neox.layers.5.post_mlp_dropout Dropout(p=0.0, inplace=False)
gpt_neox.layers.5.attention GPTNeoXAttention(
  (rotary_emb): GPTNeoXRotaryEmbedding()
  (query_key_value): Linear(in_features=4096, out_features=12288, bias=True)
  (dense): Linear(in_features=4096, out_features=4096, bias=True)
  (attention_dropout): Dropout(p=0.0, inplace=False)
)
gpt_neox.layers.5.attention.rotary_emb GPTNeoXRotaryEmbedding()
gpt_neox.layers.5.attention.query_key_value Linear(in_features=4096, out_features=12288, bias=True)
gpt_neox.layers.5.attention.dense Linear(in_features=4096, out_features=4096, bias=True)
gpt_neox.layers.5.attention.attention_dropout Dropout(p=0.0, inplace=False)
gpt_neox.layers.5.mlp GPTNeoXMLP(
  (dense_h_to_4h): Linear(in_features=4096, out_features=16384, bias=True)
  (dense_4h_to_h): Linear(in_features=16384, out_features=4096, bias=True)
  (act): GELUActivation()
)
gpt_neox.layers.5.mlp.dense_h_to_4h Linear(in_features=4096, out_features=16384, bias=True)
gpt_neox.layers.5.mlp.dense_4h_to_h Linear(in_features=16384, out_features=4096, bias=True)
gpt_neox.layers.5.mlp.act GELUActivation()
gpt_neox.layers.6 GPTNeoXLayer(
  (input_layernorm): LayerNorm((4096,), eps=1e-05, elementwise_affine=True)
  (post_attention_layernorm): LayerNorm((4096,), eps=1e-05, elementwise_affine=True)
  (post_attention_dropout): Dropout(p=0.0, inplace=False)
  (post_mlp_dropout): Dropout(p=0.0, inplace=False)
  (attention): GPTNeoXAttention(
    (rotary_emb): GPTNeoXRotaryEmbedding()
    (query_key_value): Linear(in_features=4096, out_features=12288, bias=True)
    (dense): Linear(in_features=4096, out_features=4096, bias=True)
    (attention_dropout): Dropout(p=0.0, inplace=False)
  )
  (mlp): GPTNeoXMLP(
    (dense_h_to_4h): Linear(in_features=4096, out_features=16384, bias=True)
    (dense_4h_to_h): Linear(in_features=16384, out_features=4096, bias=True)
    (act): GELUActivation()
  )
)
gpt_neox.layers.6.input_layernorm LayerNorm((4096,), eps=1e-05, elementwise_affine=True)
gpt_neox.layers.6.post_attention_layernorm LayerNorm((4096,), eps=1e-05, elementwise_affine=True)
gpt_neox.layers.6.post_attention_dropout Dropout(p=0.0, inplace=False)
gpt_neox.layers.6.post_mlp_dropout Dropout(p=0.0, inplace=False)
gpt_neox.layers.6.attention GPTNeoXAttention(
  (rotary_emb): GPTNeoXRotaryEmbedding()
  (query_key_value): Linear(in_features=4096, out_features=12288, bias=True)
  (dense): Linear(in_features=4096, out_features=4096, bias=True)
  (attention_dropout): Dropout(p=0.0, inplace=False)
)
gpt_neox.layers.6.attention.rotary_emb GPTNeoXRotaryEmbedding()
gpt_neox.layers.6.attention.query_key_value Linear(in_features=4096, out_features=12288, bias=True)
gpt_neox.layers.6.attention.dense Linear(in_features=4096, out_features=4096, bias=True)
gpt_neox.layers.6.attention.attention_dropout Dropout(p=0.0, inplace=False)
gpt_neox.layers.6.mlp GPTNeoXMLP(
  (dense_h_to_4h): Linear(in_features=4096, out_features=16384, bias=True)
  (dense_4h_to_h): Linear(in_features=16384, out_features=4096, bias=True)
  (act): GELUActivation()
)
gpt_neox.layers.6.mlp.dense_h_to_4h Linear(in_features=4096, out_features=16384, bias=True)
gpt_neox.layers.6.mlp.dense_4h_to_h Linear(in_features=16384, out_features=4096, bias=True)
gpt_neox.layers.6.mlp.act GELUActivation()
gpt_neox.layers.7 GPTNeoXLayer(
  (input_layernorm): LayerNorm((4096,), eps=1e-05, elementwise_affine=True)
  (post_attention_layernorm): LayerNorm((4096,), eps=1e-05, elementwise_affine=True)
  (post_attention_dropout): Dropout(p=0.0, inplace=False)
  (post_mlp_dropout): Dropout(p=0.0, inplace=False)
  (attention): GPTNeoXAttention(
    (rotary_emb): GPTNeoXRotaryEmbedding()
    (query_key_value): Linear(in_features=4096, out_features=12288, bias=True)
    (dense): Linear(in_features=4096, out_features=4096, bias=True)
    (attention_dropout): Dropout(p=0.0, inplace=False)
  )
  (mlp): GPTNeoXMLP(
    (dense_h_to_4h): Linear(in_features=4096, out_features=16384, bias=True)
    (dense_4h_to_h): Linear(in_features=16384, out_features=4096, bias=True)
    (act): GELUActivation()
  )
)
gpt_neox.layers.7.input_layernorm LayerNorm((4096,), eps=1e-05, elementwise_affine=True)
gpt_neox.layers.7.post_attention_layernorm LayerNorm((4096,), eps=1e-05, elementwise_affine=True)
gpt_neox.layers.7.post_attention_dropout Dropout(p=0.0, inplace=False)
gpt_neox.layers.7.post_mlp_dropout Dropout(p=0.0, inplace=False)
gpt_neox.layers.7.attention GPTNeoXAttention(
  (rotary_emb): GPTNeoXRotaryEmbedding()
  (query_key_value): Linear(in_features=4096, out_features=12288, bias=True)
  (dense): Linear(in_features=4096, out_features=4096, bias=True)
  (attention_dropout): Dropout(p=0.0, inplace=False)
)
gpt_neox.layers.7.attention.rotary_emb GPTNeoXRotaryEmbedding()
gpt_neox.layers.7.attention.query_key_value Linear(in_features=4096, out_features=12288, bias=True)
gpt_neox.layers.7.attention.dense Linear(in_features=4096, out_features=4096, bias=True)
gpt_neox.layers.7.attention.attention_dropout Dropout(p=0.0, inplace=False)
gpt_neox.layers.7.mlp GPTNeoXMLP(
  (dense_h_to_4h): Linear(in_features=4096, out_features=16384, bias=True)
  (dense_4h_to_h): Linear(in_features=16384, out_features=4096, bias=True)
  (act): GELUActivation()
)
gpt_neox.layers.7.mlp.dense_h_to_4h Linear(in_features=4096, out_features=16384, bias=True)
gpt_neox.layers.7.mlp.dense_4h_to_h Linear(in_features=16384, out_features=4096, bias=True)
gpt_neox.layers.7.mlp.act GELUActivation()
gpt_neox.layers.8 GPTNeoXLayer(
  (input_layernorm): LayerNorm((4096,), eps=1e-05, elementwise_affine=True)
  (post_attention_layernorm): LayerNorm((4096,), eps=1e-05, elementwise_affine=True)
  (post_attention_dropout): Dropout(p=0.0, inplace=False)
  (post_mlp_dropout): Dropout(p=0.0, inplace=False)
  (attention): GPTNeoXAttention(
    (rotary_emb): GPTNeoXRotaryEmbedding()
    (query_key_value): Linear(in_features=4096, out_features=12288, bias=True)
    (dense): Linear(in_features=4096, out_features=4096, bias=True)
    (attention_dropout): Dropout(p=0.0, inplace=False)
  )
  (mlp): GPTNeoXMLP(
    (dense_h_to_4h): Linear(in_features=4096, out_features=16384, bias=True)
    (dense_4h_to_h): Linear(in_features=16384, out_features=4096, bias=True)
    (act): GELUActivation()
  )
)
gpt_neox.layers.8.input_layernorm LayerNorm((4096,), eps=1e-05, elementwise_affine=True)
gpt_neox.layers.8.post_attention_layernorm LayerNorm((4096,), eps=1e-05, elementwise_affine=True)
gpt_neox.layers.8.post_attention_dropout Dropout(p=0.0, inplace=False)
gpt_neox.layers.8.post_mlp_dropout Dropout(p=0.0, inplace=False)
gpt_neox.layers.8.attention GPTNeoXAttention(
  (rotary_emb): GPTNeoXRotaryEmbedding()
  (query_key_value): Linear(in_features=4096, out_features=12288, bias=True)
  (dense): Linear(in_features=4096, out_features=4096, bias=True)
  (attention_dropout): Dropout(p=0.0, inplace=False)
)
gpt_neox.layers.8.attention.rotary_emb GPTNeoXRotaryEmbedding()
gpt_neox.layers.8.attention.query_key_value Linear(in_features=4096, out_features=12288, bias=True)
gpt_neox.layers.8.attention.dense Linear(in_features=4096, out_features=4096, bias=True)
gpt_neox.layers.8.attention.attention_dropout Dropout(p=0.0, inplace=False)
gpt_neox.layers.8.mlp GPTNeoXMLP(
  (dense_h_to_4h): Linear(in_features=4096, out_features=16384, bias=True)
  (dense_4h_to_h): Linear(in_features=16384, out_features=4096, bias=True)
  (act): GELUActivation()
)
gpt_neox.layers.8.mlp.dense_h_to_4h Linear(in_features=4096, out_features=16384, bias=True)
gpt_neox.layers.8.mlp.dense_4h_to_h Linear(in_features=16384, out_features=4096, bias=True)
gpt_neox.layers.8.mlp.act GELUActivation()
gpt_neox.layers.9 GPTNeoXLayer(
  (input_layernorm): LayerNorm((4096,), eps=1e-05, elementwise_affine=True)
  (post_attention_layernorm): LayerNorm((4096,), eps=1e-05, elementwise_affine=True)
  (post_attention_dropout): Dropout(p=0.0, inplace=False)
  (post_mlp_dropout): Dropout(p=0.0, inplace=False)
  (attention): GPTNeoXAttention(
    (rotary_emb): GPTNeoXRotaryEmbedding()
    (query_key_value): Linear(in_features=4096, out_features=12288, bias=True)
    (dense): Linear(in_features=4096, out_features=4096, bias=True)
    (attention_dropout): Dropout(p=0.0, inplace=False)
  )
  (mlp): GPTNeoXMLP(
    (dense_h_to_4h): Linear(in_features=4096, out_features=16384, bias=True)
    (dense_4h_to_h): Linear(in_features=16384, out_features=4096, bias=True)
    (act): GELUActivation()
  )
)
gpt_neox.layers.9.input_layernorm LayerNorm((4096,), eps=1e-05, elementwise_affine=True)
gpt_neox.layers.9.post_attention_layernorm LayerNorm((4096,), eps=1e-05, elementwise_affine=True)
gpt_neox.layers.9.post_attention_dropout Dropout(p=0.0, inplace=False)
gpt_neox.layers.9.post_mlp_dropout Dropout(p=0.0, inplace=False)
gpt_neox.layers.9.attention GPTNeoXAttention(
  (rotary_emb): GPTNeoXRotaryEmbedding()
  (query_key_value): Linear(in_features=4096, out_features=12288, bias=True)
  (dense): Linear(in_features=4096, out_features=4096, bias=True)
  (attention_dropout): Dropout(p=0.0, inplace=False)
)
gpt_neox.layers.9.attention.rotary_emb GPTNeoXRotaryEmbedding()
gpt_neox.layers.9.attention.query_key_value Linear(in_features=4096, out_features=12288, bias=True)
gpt_neox.layers.9.attention.dense Linear(in_features=4096, out_features=4096, bias=True)
gpt_neox.layers.9.attention.attention_dropout Dropout(p=0.0, inplace=False)
gpt_neox.layers.9.mlp GPTNeoXMLP(
  (dense_h_to_4h): Linear(in_features=4096, out_features=16384, bias=True)
  (dense_4h_to_h): Linear(in_features=16384, out_features=4096, bias=True)
  (act): GELUActivation()
)
gpt_neox.layers.9.mlp.dense_h_to_4h Linear(in_features=4096, out_features=16384, bias=True)
gpt_neox.layers.9.mlp.dense_4h_to_h Linear(in_features=16384, out_features=4096, bias=True)
gpt_neox.layers.9.mlp.act GELUActivation()
gpt_neox.layers.10 GPTNeoXLayer(
  (input_layernorm): LayerNorm((4096,), eps=1e-05, elementwise_affine=True)
  (post_attention_layernorm): LayerNorm((4096,), eps=1e-05, elementwise_affine=True)
  (post_attention_dropout): Dropout(p=0.0, inplace=False)
  (post_mlp_dropout): Dropout(p=0.0, inplace=False)
  (attention): GPTNeoXAttention(
    (rotary_emb): GPTNeoXRotaryEmbedding()
    (query_key_value): Linear(in_features=4096, out_features=12288, bias=True)
    (dense): Linear(in_features=4096, out_features=4096, bias=True)
    (attention_dropout): Dropout(p=0.0, inplace=False)
  )
  (mlp): GPTNeoXMLP(
    (dense_h_to_4h): Linear(in_features=4096, out_features=16384, bias=True)
    (dense_4h_to_h): Linear(in_features=16384, out_features=4096, bias=True)
    (act): GELUActivation()
  )
)
gpt_neox.layers.10.input_layernorm LayerNorm((4096,), eps=1e-05, elementwise_affine=True)
gpt_neox.layers.10.post_attention_layernorm LayerNorm((4096,), eps=1e-05, elementwise_affine=True)
gpt_neox.layers.10.post_attention_dropout Dropout(p=0.0, inplace=False)
gpt_neox.layers.10.post_mlp_dropout Dropout(p=0.0, inplace=False)
gpt_neox.layers.10.attention GPTNeoXAttention(
  (rotary_emb): GPTNeoXRotaryEmbedding()
  (query_key_value): Linear(in_features=4096, out_features=12288, bias=True)
  (dense): Linear(in_features=4096, out_features=4096, bias=True)
  (attention_dropout): Dropout(p=0.0, inplace=False)
)
gpt_neox.layers.10.attention.rotary_emb GPTNeoXRotaryEmbedding()
gpt_neox.layers.10.attention.query_key_value Linear(in_features=4096, out_features=12288, bias=True)
gpt_neox.layers.10.attention.dense Linear(in_features=4096, out_features=4096, bias=True)
gpt_neox.layers.10.attention.attention_dropout Dropout(p=0.0, inplace=False)
gpt_neox.layers.10.mlp GPTNeoXMLP(
  (dense_h_to_4h): Linear(in_features=4096, out_features=16384, bias=True)
  (dense_4h_to_h): Linear(in_features=16384, out_features=4096, bias=True)
  (act): GELUActivation()
)
gpt_neox.layers.10.mlp.dense_h_to_4h Linear(in_features=4096, out_features=16384, bias=True)
gpt_neox.layers.10.mlp.dense_4h_to_h Linear(in_features=16384, out_features=4096, bias=True)
gpt_neox.layers.10.mlp.act GELUActivation()
gpt_neox.layers.11 GPTNeoXLayer(
  (input_layernorm): LayerNorm((4096,), eps=1e-05, elementwise_affine=True)
  (post_attention_layernorm): LayerNorm((4096,), eps=1e-05, elementwise_affine=True)
  (post_attention_dropout): Dropout(p=0.0, inplace=False)
  (post_mlp_dropout): Dropout(p=0.0, inplace=False)
  (attention): GPTNeoXAttention(
    (rotary_emb): GPTNeoXRotaryEmbedding()
    (query_key_value): Linear(in_features=4096, out_features=12288, bias=True)
    (dense): Linear(in_features=4096, out_features=4096, bias=True)
    (attention_dropout): Dropout(p=0.0, inplace=False)
  )
  (mlp): GPTNeoXMLP(
    (dense_h_to_4h): Linear(in_features=4096, out_features=16384, bias=True)
    (dense_4h_to_h): Linear(in_features=16384, out_features=4096, bias=True)
    (act): GELUActivation()
  )
)
gpt_neox.layers.11.input_layernorm LayerNorm((4096,), eps=1e-05, elementwise_affine=True)
gpt_neox.layers.11.post_attention_layernorm LayerNorm((4096,), eps=1e-05, elementwise_affine=True)
gpt_neox.layers.11.post_attention_dropout Dropout(p=0.0, inplace=False)
gpt_neox.layers.11.post_mlp_dropout Dropout(p=0.0, inplace=False)
gpt_neox.layers.11.attention GPTNeoXAttention(
  (rotary_emb): GPTNeoXRotaryEmbedding()
  (query_key_value): Linear(in_features=4096, out_features=12288, bias=True)
  (dense): Linear(in_features=4096, out_features=4096, bias=True)
  (attention_dropout): Dropout(p=0.0, inplace=False)
)
gpt_neox.layers.11.attention.rotary_emb GPTNeoXRotaryEmbedding()
gpt_neox.layers.11.attention.query_key_value Linear(in_features=4096, out_features=12288, bias=True)
gpt_neox.layers.11.attention.dense Linear(in_features=4096, out_features=4096, bias=True)
gpt_neox.layers.11.attention.attention_dropout Dropout(p=0.0, inplace=False)
gpt_neox.layers.11.mlp GPTNeoXMLP(
  (dense_h_to_4h): Linear(in_features=4096, out_features=16384, bias=True)
  (dense_4h_to_h): Linear(in_features=16384, out_features=4096, bias=True)
  (act): GELUActivation()
)
gpt_neox.layers.11.mlp.dense_h_to_4h Linear(in_features=4096, out_features=16384, bias=True)
gpt_neox.layers.11.mlp.dense_4h_to_h Linear(in_features=16384, out_features=4096, bias=True)
gpt_neox.layers.11.mlp.act GELUActivation()
gpt_neox.layers.12 GPTNeoXLayer(
  (input_layernorm): LayerNorm((4096,), eps=1e-05, elementwise_affine=True)
  (post_attention_layernorm): LayerNorm((4096,), eps=1e-05, elementwise_affine=True)
  (post_attention_dropout): Dropout(p=0.0, inplace=False)
  (post_mlp_dropout): Dropout(p=0.0, inplace=False)
  (attention): GPTNeoXAttention(
    (rotary_emb): GPTNeoXRotaryEmbedding()
    (query_key_value): Linear(in_features=4096, out_features=12288, bias=True)
    (dense): Linear(in_features=4096, out_features=4096, bias=True)
    (attention_dropout): Dropout(p=0.0, inplace=False)
  )
  (mlp): GPTNeoXMLP(
    (dense_h_to_4h): Linear(in_features=4096, out_features=16384, bias=True)
    (dense_4h_to_h): Linear(in_features=16384, out_features=4096, bias=True)
    (act): GELUActivation()
  )
)
gpt_neox.layers.12.input_layernorm LayerNorm((4096,), eps=1e-05, elementwise_affine=True)
gpt_neox.layers.12.post_attention_layernorm LayerNorm((4096,), eps=1e-05, elementwise_affine=True)
gpt_neox.layers.12.post_attention_dropout Dropout(p=0.0, inplace=False)
gpt_neox.layers.12.post_mlp_dropout Dropout(p=0.0, inplace=False)
gpt_neox.layers.12.attention GPTNeoXAttention(
  (rotary_emb): GPTNeoXRotaryEmbedding()
  (query_key_value): Linear(in_features=4096, out_features=12288, bias=True)
  (dense): Linear(in_features=4096, out_features=4096, bias=True)
  (attention_dropout): Dropout(p=0.0, inplace=False)
)
gpt_neox.layers.12.attention.rotary_emb GPTNeoXRotaryEmbedding()
gpt_neox.layers.12.attention.query_key_value Linear(in_features=4096, out_features=12288, bias=True)
gpt_neox.layers.12.attention.dense Linear(in_features=4096, out_features=4096, bias=True)
gpt_neox.layers.12.attention.attention_dropout Dropout(p=0.0, inplace=False)
gpt_neox.layers.12.mlp GPTNeoXMLP(
  (dense_h_to_4h): Linear(in_features=4096, out_features=16384, bias=True)
  (dense_4h_to_h): Linear(in_features=16384, out_features=4096, bias=True)
  (act): GELUActivation()
)
gpt_neox.layers.12.mlp.dense_h_to_4h Linear(in_features=4096, out_features=16384, bias=True)
gpt_neox.layers.12.mlp.dense_4h_to_h Linear(in_features=16384, out_features=4096, bias=True)
gpt_neox.layers.12.mlp.act GELUActivation()
gpt_neox.layers.13 GPTNeoXLayer(
  (input_layernorm): LayerNorm((4096,), eps=1e-05, elementwise_affine=True)
  (post_attention_layernorm): LayerNorm((4096,), eps=1e-05, elementwise_affine=True)
  (post_attention_dropout): Dropout(p=0.0, inplace=False)
  (post_mlp_dropout): Dropout(p=0.0, inplace=False)
  (attention): GPTNeoXAttention(
    (rotary_emb): GPTNeoXRotaryEmbedding()
    (query_key_value): Linear(in_features=4096, out_features=12288, bias=True)
    (dense): Linear(in_features=4096, out_features=4096, bias=True)
    (attention_dropout): Dropout(p=0.0, inplace=False)
  )
  (mlp): GPTNeoXMLP(
    (dense_h_to_4h): Linear(in_features=4096, out_features=16384, bias=True)
    (dense_4h_to_h): Linear(in_features=16384, out_features=4096, bias=True)
    (act): GELUActivation()
  )
)
gpt_neox.layers.13.input_layernorm LayerNorm((4096,), eps=1e-05, elementwise_affine=True)
gpt_neox.layers.13.post_attention_layernorm LayerNorm((4096,), eps=1e-05, elementwise_affine=True)
gpt_neox.layers.13.post_attention_dropout Dropout(p=0.0, inplace=False)
gpt_neox.layers.13.post_mlp_dropout Dropout(p=0.0, inplace=False)
gpt_neox.layers.13.attention GPTNeoXAttention(
  (rotary_emb): GPTNeoXRotaryEmbedding()
  (query_key_value): Linear(in_features=4096, out_features=12288, bias=True)
  (dense): Linear(in_features=4096, out_features=4096, bias=True)
  (attention_dropout): Dropout(p=0.0, inplace=False)
)
gpt_neox.layers.13.attention.rotary_emb GPTNeoXRotaryEmbedding()
gpt_neox.layers.13.attention.query_key_value Linear(in_features=4096, out_features=12288, bias=True)
gpt_neox.layers.13.attention.dense Linear(in_features=4096, out_features=4096, bias=True)
gpt_neox.layers.13.attention.attention_dropout Dropout(p=0.0, inplace=False)
gpt_neox.layers.13.mlp GPTNeoXMLP(
  (dense_h_to_4h): Linear(in_features=4096, out_features=16384, bias=True)
  (dense_4h_to_h): Linear(in_features=16384, out_features=4096, bias=True)
  (act): GELUActivation()
)
gpt_neox.layers.13.mlp.dense_h_to_4h Linear(in_features=4096, out_features=16384, bias=True)
gpt_neox.layers.13.mlp.dense_4h_to_h Linear(in_features=16384, out_features=4096, bias=True)
gpt_neox.layers.13.mlp.act GELUActivation()
gpt_neox.layers.14 GPTNeoXLayer(
  (input_layernorm): LayerNorm((4096,), eps=1e-05, elementwise_affine=True)
  (post_attention_layernorm): LayerNorm((4096,), eps=1e-05, elementwise_affine=True)
  (post_attention_dropout): Dropout(p=0.0, inplace=False)
  (post_mlp_dropout): Dropout(p=0.0, inplace=False)
  (attention): GPTNeoXAttention(
    (rotary_emb): GPTNeoXRotaryEmbedding()
    (query_key_value): Linear(in_features=4096, out_features=12288, bias=True)
    (dense): Linear(in_features=4096, out_features=4096, bias=True)
    (attention_dropout): Dropout(p=0.0, inplace=False)
  )
  (mlp): GPTNeoXMLP(
    (dense_h_to_4h): Linear(in_features=4096, out_features=16384, bias=True)
    (dense_4h_to_h): Linear(in_features=16384, out_features=4096, bias=True)
    (act): GELUActivation()
  )
)
gpt_neox.layers.14.input_layernorm LayerNorm((4096,), eps=1e-05, elementwise_affine=True)
gpt_neox.layers.14.post_attention_layernorm LayerNorm((4096,), eps=1e-05, elementwise_affine=True)
gpt_neox.layers.14.post_attention_dropout Dropout(p=0.0, inplace=False)
gpt_neox.layers.14.post_mlp_dropout Dropout(p=0.0, inplace=False)
gpt_neox.layers.14.attention GPTNeoXAttention(
  (rotary_emb): GPTNeoXRotaryEmbedding()
  (query_key_value): Linear(in_features=4096, out_features=12288, bias=True)
  (dense): Linear(in_features=4096, out_features=4096, bias=True)
  (attention_dropout): Dropout(p=0.0, inplace=False)
)
gpt_neox.layers.14.attention.rotary_emb GPTNeoXRotaryEmbedding()
gpt_neox.layers.14.attention.query_key_value Linear(in_features=4096, out_features=12288, bias=True)
gpt_neox.layers.14.attention.dense Linear(in_features=4096, out_features=4096, bias=True)
gpt_neox.layers.14.attention.attention_dropout Dropout(p=0.0, inplace=False)
gpt_neox.layers.14.mlp GPTNeoXMLP(
  (dense_h_to_4h): Linear(in_features=4096, out_features=16384, bias=True)
  (dense_4h_to_h): Linear(in_features=16384, out_features=4096, bias=True)
  (act): GELUActivation()
)
gpt_neox.layers.14.mlp.dense_h_to_4h Linear(in_features=4096, out_features=16384, bias=True)
gpt_neox.layers.14.mlp.dense_4h_to_h Linear(in_features=16384, out_features=4096, bias=True)
gpt_neox.layers.14.mlp.act GELUActivation()
gpt_neox.layers.15 GPTNeoXLayer(
  (input_layernorm): LayerNorm((4096,), eps=1e-05, elementwise_affine=True)
  (post_attention_layernorm): LayerNorm((4096,), eps=1e-05, elementwise_affine=True)
  (post_attention_dropout): Dropout(p=0.0, inplace=False)
  (post_mlp_dropout): Dropout(p=0.0, inplace=False)
  (attention): GPTNeoXAttention(
    (rotary_emb): GPTNeoXRotaryEmbedding()
    (query_key_value): Linear(in_features=4096, out_features=12288, bias=True)
    (dense): Linear(in_features=4096, out_features=4096, bias=True)
    (attention_dropout): Dropout(p=0.0, inplace=False)
  )
  (mlp): GPTNeoXMLP(
    (dense_h_to_4h): Linear(in_features=4096, out_features=16384, bias=True)
    (dense_4h_to_h): Linear(in_features=16384, out_features=4096, bias=True)
    (act): GELUActivation()
  )
)
gpt_neox.layers.15.input_layernorm LayerNorm((4096,), eps=1e-05, elementwise_affine=True)
gpt_neox.layers.15.post_attention_layernorm LayerNorm((4096,), eps=1e-05, elementwise_affine=True)
gpt_neox.layers.15.post_attention_dropout Dropout(p=0.0, inplace=False)
gpt_neox.layers.15.post_mlp_dropout Dropout(p=0.0, inplace=False)
gpt_neox.layers.15.attention GPTNeoXAttention(
  (rotary_emb): GPTNeoXRotaryEmbedding()
  (query_key_value): Linear(in_features=4096, out_features=12288, bias=True)
  (dense): Linear(in_features=4096, out_features=4096, bias=True)
  (attention_dropout): Dropout(p=0.0, inplace=False)
)
gpt_neox.layers.15.attention.rotary_emb GPTNeoXRotaryEmbedding()
gpt_neox.layers.15.attention.query_key_value Linear(in_features=4096, out_features=12288, bias=True)
gpt_neox.layers.15.attention.dense Linear(in_features=4096, out_features=4096, bias=True)
gpt_neox.layers.15.attention.attention_dropout Dropout(p=0.0, inplace=False)
gpt_neox.layers.15.mlp GPTNeoXMLP(
  (dense_h_to_4h): Linear(in_features=4096, out_features=16384, bias=True)
  (dense_4h_to_h): Linear(in_features=16384, out_features=4096, bias=True)
  (act): GELUActivation()
)
gpt_neox.layers.15.mlp.dense_h_to_4h Linear(in_features=4096, out_features=16384, bias=True)
gpt_neox.layers.15.mlp.dense_4h_to_h Linear(in_features=16384, out_features=4096, bias=True)
gpt_neox.layers.15.mlp.act GELUActivation()
gpt_neox.layers.16 GPTNeoXLayer(
  (input_layernorm): LayerNorm((4096,), eps=1e-05, elementwise_affine=True)
  (post_attention_layernorm): LayerNorm((4096,), eps=1e-05, elementwise_affine=True)
  (post_attention_dropout): Dropout(p=0.0, inplace=False)
  (post_mlp_dropout): Dropout(p=0.0, inplace=False)
  (attention): GPTNeoXAttention(
    (rotary_emb): GPTNeoXRotaryEmbedding()
    (query_key_value): Linear(in_features=4096, out_features=12288, bias=True)
    (dense): Linear(in_features=4096, out_features=4096, bias=True)
    (attention_dropout): Dropout(p=0.0, inplace=False)
  )
  (mlp): GPTNeoXMLP(
    (dense_h_to_4h): Linear(in_features=4096, out_features=16384, bias=True)
    (dense_4h_to_h): Linear(in_features=16384, out_features=4096, bias=True)
    (act): GELUActivation()
  )
)
gpt_neox.layers.16.input_layernorm LayerNorm((4096,), eps=1e-05, elementwise_affine=True)
gpt_neox.layers.16.post_attention_layernorm LayerNorm((4096,), eps=1e-05, elementwise_affine=True)
gpt_neox.layers.16.post_attention_dropout Dropout(p=0.0, inplace=False)
gpt_neox.layers.16.post_mlp_dropout Dropout(p=0.0, inplace=False)
gpt_neox.layers.16.attention GPTNeoXAttention(
  (rotary_emb): GPTNeoXRotaryEmbedding()
  (query_key_value): Linear(in_features=4096, out_features=12288, bias=True)
  (dense): Linear(in_features=4096, out_features=4096, bias=True)
  (attention_dropout): Dropout(p=0.0, inplace=False)
)
gpt_neox.layers.16.attention.rotary_emb GPTNeoXRotaryEmbedding()
gpt_neox.layers.16.attention.query_key_value Linear(in_features=4096, out_features=12288, bias=True)
gpt_neox.layers.16.attention.dense Linear(in_features=4096, out_features=4096, bias=True)
gpt_neox.layers.16.attention.attention_dropout Dropout(p=0.0, inplace=False)
gpt_neox.layers.16.mlp GPTNeoXMLP(
  (dense_h_to_4h): Linear(in_features=4096, out_features=16384, bias=True)
  (dense_4h_to_h): Linear(in_features=16384, out_features=4096, bias=True)
  (act): GELUActivation()
)
gpt_neox.layers.16.mlp.dense_h_to_4h Linear(in_features=4096, out_features=16384, bias=True)
gpt_neox.layers.16.mlp.dense_4h_to_h Linear(in_features=16384, out_features=4096, bias=True)
gpt_neox.layers.16.mlp.act GELUActivation()
gpt_neox.layers.17 GPTNeoXLayer(
  (input_layernorm): LayerNorm((4096,), eps=1e-05, elementwise_affine=True)
  (post_attention_layernorm): LayerNorm((4096,), eps=1e-05, elementwise_affine=True)
  (post_attention_dropout): Dropout(p=0.0, inplace=False)
  (post_mlp_dropout): Dropout(p=0.0, inplace=False)
  (attention): GPTNeoXAttention(
    (rotary_emb): GPTNeoXRotaryEmbedding()
    (query_key_value): Linear(in_features=4096, out_features=12288, bias=True)
    (dense): Linear(in_features=4096, out_features=4096, bias=True)
    (attention_dropout): Dropout(p=0.0, inplace=False)
  )
  (mlp): GPTNeoXMLP(
    (dense_h_to_4h): Linear(in_features=4096, out_features=16384, bias=True)
    (dense_4h_to_h): Linear(in_features=16384, out_features=4096, bias=True)
    (act): GELUActivation()
  )
)
gpt_neox.layers.17.input_layernorm LayerNorm((4096,), eps=1e-05, elementwise_affine=True)
gpt_neox.layers.17.post_attention_layernorm LayerNorm((4096,), eps=1e-05, elementwise_affine=True)
gpt_neox.layers.17.post_attention_dropout Dropout(p=0.0, inplace=False)
gpt_neox.layers.17.post_mlp_dropout Dropout(p=0.0, inplace=False)
gpt_neox.layers.17.attention GPTNeoXAttention(
  (rotary_emb): GPTNeoXRotaryEmbedding()
  (query_key_value): Linear(in_features=4096, out_features=12288, bias=True)
  (dense): Linear(in_features=4096, out_features=4096, bias=True)
  (attention_dropout): Dropout(p=0.0, inplace=False)
)
gpt_neox.layers.17.attention.rotary_emb GPTNeoXRotaryEmbedding()
gpt_neox.layers.17.attention.query_key_value Linear(in_features=4096, out_features=12288, bias=True)
gpt_neox.layers.17.attention.dense Linear(in_features=4096, out_features=4096, bias=True)
gpt_neox.layers.17.attention.attention_dropout Dropout(p=0.0, inplace=False)
gpt_neox.layers.17.mlp GPTNeoXMLP(
  (dense_h_to_4h): Linear(in_features=4096, out_features=16384, bias=True)
  (dense_4h_to_h): Linear(in_features=16384, out_features=4096, bias=True)
  (act): GELUActivation()
)
gpt_neox.layers.17.mlp.dense_h_to_4h Linear(in_features=4096, out_features=16384, bias=True)
gpt_neox.layers.17.mlp.dense_4h_to_h Linear(in_features=16384, out_features=4096, bias=True)
gpt_neox.layers.17.mlp.act GELUActivation()
gpt_neox.layers.18 GPTNeoXLayer(
  (input_layernorm): LayerNorm((4096,), eps=1e-05, elementwise_affine=True)
  (post_attention_layernorm): LayerNorm((4096,), eps=1e-05, elementwise_affine=True)
  (post_attention_dropout): Dropout(p=0.0, inplace=False)
  (post_mlp_dropout): Dropout(p=0.0, inplace=False)
  (attention): GPTNeoXAttention(
    (rotary_emb): GPTNeoXRotaryEmbedding()
    (query_key_value): Linear(in_features=4096, out_features=12288, bias=True)
    (dense): Linear(in_features=4096, out_features=4096, bias=True)
    (attention_dropout): Dropout(p=0.0, inplace=False)
  )
  (mlp): GPTNeoXMLP(
    (dense_h_to_4h): Linear(in_features=4096, out_features=16384, bias=True)
    (dense_4h_to_h): Linear(in_features=16384, out_features=4096, bias=True)
    (act): GELUActivation()
  )
)
gpt_neox.layers.18.input_layernorm LayerNorm((4096,), eps=1e-05, elementwise_affine=True)
gpt_neox.layers.18.post_attention_layernorm LayerNorm((4096,), eps=1e-05, elementwise_affine=True)
gpt_neox.layers.18.post_attention_dropout Dropout(p=0.0, inplace=False)
gpt_neox.layers.18.post_mlp_dropout Dropout(p=0.0, inplace=False)
gpt_neox.layers.18.attention GPTNeoXAttention(
  (rotary_emb): GPTNeoXRotaryEmbedding()
  (query_key_value): Linear(in_features=4096, out_features=12288, bias=True)
  (dense): Linear(in_features=4096, out_features=4096, bias=True)
  (attention_dropout): Dropout(p=0.0, inplace=False)
)
gpt_neox.layers.18.attention.rotary_emb GPTNeoXRotaryEmbedding()
gpt_neox.layers.18.attention.query_key_value Linear(in_features=4096, out_features=12288, bias=True)
gpt_neox.layers.18.attention.dense Linear(in_features=4096, out_features=4096, bias=True)
gpt_neox.layers.18.attention.attention_dropout Dropout(p=0.0, inplace=False)
gpt_neox.layers.18.mlp GPTNeoXMLP(
  (dense_h_to_4h): Linear(in_features=4096, out_features=16384, bias=True)
  (dense_4h_to_h): Linear(in_features=16384, out_features=4096, bias=True)
  (act): GELUActivation()
)
gpt_neox.layers.18.mlp.dense_h_to_4h Linear(in_features=4096, out_features=16384, bias=True)
gpt_neox.layers.18.mlp.dense_4h_to_h Linear(in_features=16384, out_features=4096, bias=True)
gpt_neox.layers.18.mlp.act GELUActivation()
gpt_neox.layers.19 GPTNeoXLayer(
  (input_layernorm): LayerNorm((4096,), eps=1e-05, elementwise_affine=True)
  (post_attention_layernorm): LayerNorm((4096,), eps=1e-05, elementwise_affine=True)
  (post_attention_dropout): Dropout(p=0.0, inplace=False)
  (post_mlp_dropout): Dropout(p=0.0, inplace=False)
  (attention): GPTNeoXAttention(
    (rotary_emb): GPTNeoXRotaryEmbedding()
    (query_key_value): Linear(in_features=4096, out_features=12288, bias=True)
    (dense): Linear(in_features=4096, out_features=4096, bias=True)
    (attention_dropout): Dropout(p=0.0, inplace=False)
  )
  (mlp): GPTNeoXMLP(
    (dense_h_to_4h): Linear(in_features=4096, out_features=16384, bias=True)
    (dense_4h_to_h): Linear(in_features=16384, out_features=4096, bias=True)
    (act): GELUActivation()
  )
)
gpt_neox.layers.19.input_layernorm LayerNorm((4096,), eps=1e-05, elementwise_affine=True)
gpt_neox.layers.19.post_attention_layernorm LayerNorm((4096,), eps=1e-05, elementwise_affine=True)
gpt_neox.layers.19.post_attention_dropout Dropout(p=0.0, inplace=False)
gpt_neox.layers.19.post_mlp_dropout Dropout(p=0.0, inplace=False)
gpt_neox.layers.19.attention GPTNeoXAttention(
  (rotary_emb): GPTNeoXRotaryEmbedding()
  (query_key_value): Linear(in_features=4096, out_features=12288, bias=True)
  (dense): Linear(in_features=4096, out_features=4096, bias=True)
  (attention_dropout): Dropout(p=0.0, inplace=False)
)
gpt_neox.layers.19.attention.rotary_emb GPTNeoXRotaryEmbedding()
gpt_neox.layers.19.attention.query_key_value Linear(in_features=4096, out_features=12288, bias=True)
gpt_neox.layers.19.attention.dense Linear(in_features=4096, out_features=4096, bias=True)
gpt_neox.layers.19.attention.attention_dropout Dropout(p=0.0, inplace=False)
gpt_neox.layers.19.mlp GPTNeoXMLP(
  (dense_h_to_4h): Linear(in_features=4096, out_features=16384, bias=True)
  (dense_4h_to_h): Linear(in_features=16384, out_features=4096, bias=True)
  (act): GELUActivation()
)
gpt_neox.layers.19.mlp.dense_h_to_4h Linear(in_features=4096, out_features=16384, bias=True)
gpt_neox.layers.19.mlp.dense_4h_to_h Linear(in_features=16384, out_features=4096, bias=True)
gpt_neox.layers.19.mlp.act GELUActivation()
gpt_neox.layers.20 GPTNeoXLayer(
  (input_layernorm): LayerNorm((4096,), eps=1e-05, elementwise_affine=True)
  (post_attention_layernorm): LayerNorm((4096,), eps=1e-05, elementwise_affine=True)
  (post_attention_dropout): Dropout(p=0.0, inplace=False)
  (post_mlp_dropout): Dropout(p=0.0, inplace=False)
  (attention): GPTNeoXAttention(
    (rotary_emb): GPTNeoXRotaryEmbedding()
    (query_key_value): Linear(in_features=4096, out_features=12288, bias=True)
    (dense): Linear(in_features=4096, out_features=4096, bias=True)
    (attention_dropout): Dropout(p=0.0, inplace=False)
  )
  (mlp): GPTNeoXMLP(
    (dense_h_to_4h): Linear(in_features=4096, out_features=16384, bias=True)
    (dense_4h_to_h): Linear(in_features=16384, out_features=4096, bias=True)
    (act): GELUActivation()
  )
)
gpt_neox.layers.20.input_layernorm LayerNorm((4096,), eps=1e-05, elementwise_affine=True)
gpt_neox.layers.20.post_attention_layernorm LayerNorm((4096,), eps=1e-05, elementwise_affine=True)
gpt_neox.layers.20.post_attention_dropout Dropout(p=0.0, inplace=False)
gpt_neox.layers.20.post_mlp_dropout Dropout(p=0.0, inplace=False)
gpt_neox.layers.20.attention GPTNeoXAttention(
  (rotary_emb): GPTNeoXRotaryEmbedding()
  (query_key_value): Linear(in_features=4096, out_features=12288, bias=True)
  (dense): Linear(in_features=4096, out_features=4096, bias=True)
  (attention_dropout): Dropout(p=0.0, inplace=False)
)
gpt_neox.layers.20.attention.rotary_emb GPTNeoXRotaryEmbedding()
gpt_neox.layers.20.attention.query_key_value Linear(in_features=4096, out_features=12288, bias=True)
gpt_neox.layers.20.attention.dense Linear(in_features=4096, out_features=4096, bias=True)
gpt_neox.layers.20.attention.attention_dropout Dropout(p=0.0, inplace=False)
gpt_neox.layers.20.mlp GPTNeoXMLP(
  (dense_h_to_4h): Linear(in_features=4096, out_features=16384, bias=True)
  (dense_4h_to_h): Linear(in_features=16384, out_features=4096, bias=True)
  (act): GELUActivation()
)
gpt_neox.layers.20.mlp.dense_h_to_4h Linear(in_features=4096, out_features=16384, bias=True)
gpt_neox.layers.20.mlp.dense_4h_to_h Linear(in_features=16384, out_features=4096, bias=True)
gpt_neox.layers.20.mlp.act GELUActivation()
gpt_neox.layers.21 GPTNeoXLayer(
  (input_layernorm): LayerNorm((4096,), eps=1e-05, elementwise_affine=True)
  (post_attention_layernorm): LayerNorm((4096,), eps=1e-05, elementwise_affine=True)
  (post_attention_dropout): Dropout(p=0.0, inplace=False)
  (post_mlp_dropout): Dropout(p=0.0, inplace=False)
  (attention): GPTNeoXAttention(
    (rotary_emb): GPTNeoXRotaryEmbedding()
    (query_key_value): Linear(in_features=4096, out_features=12288, bias=True)
    (dense): Linear(in_features=4096, out_features=4096, bias=True)
    (attention_dropout): Dropout(p=0.0, inplace=False)
  )
  (mlp): GPTNeoXMLP(
    (dense_h_to_4h): Linear(in_features=4096, out_features=16384, bias=True)
    (dense_4h_to_h): Linear(in_features=16384, out_features=4096, bias=True)
    (act): GELUActivation()
  )
)
gpt_neox.layers.21.input_layernorm LayerNorm((4096,), eps=1e-05, elementwise_affine=True)
gpt_neox.layers.21.post_attention_layernorm LayerNorm((4096,), eps=1e-05, elementwise_affine=True)
gpt_neox.layers.21.post_attention_dropout Dropout(p=0.0, inplace=False)
gpt_neox.layers.21.post_mlp_dropout Dropout(p=0.0, inplace=False)
gpt_neox.layers.21.attention GPTNeoXAttention(
  (rotary_emb): GPTNeoXRotaryEmbedding()
  (query_key_value): Linear(in_features=4096, out_features=12288, bias=True)
  (dense): Linear(in_features=4096, out_features=4096, bias=True)
  (attention_dropout): Dropout(p=0.0, inplace=False)
)
gpt_neox.layers.21.attention.rotary_emb GPTNeoXRotaryEmbedding()
gpt_neox.layers.21.attention.query_key_value Linear(in_features=4096, out_features=12288, bias=True)
gpt_neox.layers.21.attention.dense Linear(in_features=4096, out_features=4096, bias=True)
gpt_neox.layers.21.attention.attention_dropout Dropout(p=0.0, inplace=False)
gpt_neox.layers.21.mlp GPTNeoXMLP(
  (dense_h_to_4h): Linear(in_features=4096, out_features=16384, bias=True)
  (dense_4h_to_h): Linear(in_features=16384, out_features=4096, bias=True)
  (act): GELUActivation()
)
gpt_neox.layers.21.mlp.dense_h_to_4h Linear(in_features=4096, out_features=16384, bias=True)
gpt_neox.layers.21.mlp.dense_4h_to_h Linear(in_features=16384, out_features=4096, bias=True)
gpt_neox.layers.21.mlp.act GELUActivation()
gpt_neox.layers.22 GPTNeoXLayer(
  (input_layernorm): LayerNorm((4096,), eps=1e-05, elementwise_affine=True)
  (post_attention_layernorm): LayerNorm((4096,), eps=1e-05, elementwise_affine=True)
  (post_attention_dropout): Dropout(p=0.0, inplace=False)
  (post_mlp_dropout): Dropout(p=0.0, inplace=False)
  (attention): GPTNeoXAttention(
    (rotary_emb): GPTNeoXRotaryEmbedding()
    (query_key_value): Linear(in_features=4096, out_features=12288, bias=True)
    (dense): Linear(in_features=4096, out_features=4096, bias=True)
    (attention_dropout): Dropout(p=0.0, inplace=False)
  )
  (mlp): GPTNeoXMLP(
    (dense_h_to_4h): Linear(in_features=4096, out_features=16384, bias=True)
    (dense_4h_to_h): Linear(in_features=16384, out_features=4096, bias=True)
    (act): GELUActivation()
  )
)
gpt_neox.layers.22.input_layernorm LayerNorm((4096,), eps=1e-05, elementwise_affine=True)
gpt_neox.layers.22.post_attention_layernorm LayerNorm((4096,), eps=1e-05, elementwise_affine=True)
gpt_neox.layers.22.post_attention_dropout Dropout(p=0.0, inplace=False)
gpt_neox.layers.22.post_mlp_dropout Dropout(p=0.0, inplace=False)
gpt_neox.layers.22.attention GPTNeoXAttention(
  (rotary_emb): GPTNeoXRotaryEmbedding()
  (query_key_value): Linear(in_features=4096, out_features=12288, bias=True)
  (dense): Linear(in_features=4096, out_features=4096, bias=True)
  (attention_dropout): Dropout(p=0.0, inplace=False)
)
gpt_neox.layers.22.attention.rotary_emb GPTNeoXRotaryEmbedding()
gpt_neox.layers.22.attention.query_key_value Linear(in_features=4096, out_features=12288, bias=True)
gpt_neox.layers.22.attention.dense Linear(in_features=4096, out_features=4096, bias=True)
gpt_neox.layers.22.attention.attention_dropout Dropout(p=0.0, inplace=False)
gpt_neox.layers.22.mlp GPTNeoXMLP(
  (dense_h_to_4h): Linear(in_features=4096, out_features=16384, bias=True)
  (dense_4h_to_h): Linear(in_features=16384, out_features=4096, bias=True)
  (act): GELUActivation()
)
gpt_neox.layers.22.mlp.dense_h_to_4h Linear(in_features=4096, out_features=16384, bias=True)
gpt_neox.layers.22.mlp.dense_4h_to_h Linear(in_features=16384, out_features=4096, bias=True)
gpt_neox.layers.22.mlp.act GELUActivation()
gpt_neox.layers.23 GPTNeoXLayer(
  (input_layernorm): LayerNorm((4096,), eps=1e-05, elementwise_affine=True)
  (post_attention_layernorm): LayerNorm((4096,), eps=1e-05, elementwise_affine=True)
  (post_attention_dropout): Dropout(p=0.0, inplace=False)
  (post_mlp_dropout): Dropout(p=0.0, inplace=False)
  (attention): GPTNeoXAttention(
    (rotary_emb): GPTNeoXRotaryEmbedding()
    (query_key_value): Linear(in_features=4096, out_features=12288, bias=True)
    (dense): Linear(in_features=4096, out_features=4096, bias=True)
    (attention_dropout): Dropout(p=0.0, inplace=False)
  )
  (mlp): GPTNeoXMLP(
    (dense_h_to_4h): Linear(in_features=4096, out_features=16384, bias=True)
    (dense_4h_to_h): Linear(in_features=16384, out_features=4096, bias=True)
    (act): GELUActivation()
  )
)
gpt_neox.layers.23.input_layernorm LayerNorm((4096,), eps=1e-05, elementwise_affine=True)
gpt_neox.layers.23.post_attention_layernorm LayerNorm((4096,), eps=1e-05, elementwise_affine=True)
gpt_neox.layers.23.post_attention_dropout Dropout(p=0.0, inplace=False)
gpt_neox.layers.23.post_mlp_dropout Dropout(p=0.0, inplace=False)
gpt_neox.layers.23.attention GPTNeoXAttention(
  (rotary_emb): GPTNeoXRotaryEmbedding()
  (query_key_value): Linear(in_features=4096, out_features=12288, bias=True)
  (dense): Linear(in_features=4096, out_features=4096, bias=True)
  (attention_dropout): Dropout(p=0.0, inplace=False)
)
gpt_neox.layers.23.attention.rotary_emb GPTNeoXRotaryEmbedding()
gpt_neox.layers.23.attention.query_key_value Linear(in_features=4096, out_features=12288, bias=True)
gpt_neox.layers.23.attention.dense Linear(in_features=4096, out_features=4096, bias=True)
gpt_neox.layers.23.attention.attention_dropout Dropout(p=0.0, inplace=False)
gpt_neox.layers.23.mlp GPTNeoXMLP(
  (dense_h_to_4h): Linear(in_features=4096, out_features=16384, bias=True)
  (dense_4h_to_h): Linear(in_features=16384, out_features=4096, bias=True)
  (act): GELUActivation()
)
gpt_neox.layers.23.mlp.dense_h_to_4h Linear(in_features=4096, out_features=16384, bias=True)
gpt_neox.layers.23.mlp.dense_4h_to_h Linear(in_features=16384, out_features=4096, bias=True)
gpt_neox.layers.23.mlp.act GELUActivation()
gpt_neox.layers.24 GPTNeoXLayer(
  (input_layernorm): LayerNorm((4096,), eps=1e-05, elementwise_affine=True)
  (post_attention_layernorm): LayerNorm((4096,), eps=1e-05, elementwise_affine=True)
  (post_attention_dropout): Dropout(p=0.0, inplace=False)
  (post_mlp_dropout): Dropout(p=0.0, inplace=False)
  (attention): GPTNeoXAttention(
    (rotary_emb): GPTNeoXRotaryEmbedding()
    (query_key_value): Linear(in_features=4096, out_features=12288, bias=True)
    (dense): Linear(in_features=4096, out_features=4096, bias=True)
    (attention_dropout): Dropout(p=0.0, inplace=False)
  )
  (mlp): GPTNeoXMLP(
    (dense_h_to_4h): Linear(in_features=4096, out_features=16384, bias=True)
    (dense_4h_to_h): Linear(in_features=16384, out_features=4096, bias=True)
    (act): GELUActivation()
  )
)
gpt_neox.layers.24.input_layernorm LayerNorm((4096,), eps=1e-05, elementwise_affine=True)
gpt_neox.layers.24.post_attention_layernorm LayerNorm((4096,), eps=1e-05, elementwise_affine=True)
gpt_neox.layers.24.post_attention_dropout Dropout(p=0.0, inplace=False)
gpt_neox.layers.24.post_mlp_dropout Dropout(p=0.0, inplace=False)
gpt_neox.layers.24.attention GPTNeoXAttention(
  (rotary_emb): GPTNeoXRotaryEmbedding()
  (query_key_value): Linear(in_features=4096, out_features=12288, bias=True)
  (dense): Linear(in_features=4096, out_features=4096, bias=True)
  (attention_dropout): Dropout(p=0.0, inplace=False)
)
gpt_neox.layers.24.attention.rotary_emb GPTNeoXRotaryEmbedding()
gpt_neox.layers.24.attention.query_key_value Linear(in_features=4096, out_features=12288, bias=True)
gpt_neox.layers.24.attention.dense Linear(in_features=4096, out_features=4096, bias=True)
gpt_neox.layers.24.attention.attention_dropout Dropout(p=0.0, inplace=False)
gpt_neox.layers.24.mlp GPTNeoXMLP(
  (dense_h_to_4h): Linear(in_features=4096, out_features=16384, bias=True)
  (dense_4h_to_h): Linear(in_features=16384, out_features=4096, bias=True)
  (act): GELUActivation()
)
gpt_neox.layers.24.mlp.dense_h_to_4h Linear(in_features=4096, out_features=16384, bias=True)
gpt_neox.layers.24.mlp.dense_4h_to_h Linear(in_features=16384, out_features=4096, bias=True)
gpt_neox.layers.24.mlp.act GELUActivation()
gpt_neox.layers.25 GPTNeoXLayer(
  (input_layernorm): LayerNorm((4096,), eps=1e-05, elementwise_affine=True)
  (post_attention_layernorm): LayerNorm((4096,), eps=1e-05, elementwise_affine=True)
  (post_attention_dropout): Dropout(p=0.0, inplace=False)
  (post_mlp_dropout): Dropout(p=0.0, inplace=False)
  (attention): GPTNeoXAttention(
    (rotary_emb): GPTNeoXRotaryEmbedding()
    (query_key_value): Linear(in_features=4096, out_features=12288, bias=True)
    (dense): Linear(in_features=4096, out_features=4096, bias=True)
    (attention_dropout): Dropout(p=0.0, inplace=False)
  )
  (mlp): GPTNeoXMLP(
    (dense_h_to_4h): Linear(in_features=4096, out_features=16384, bias=True)
    (dense_4h_to_h): Linear(in_features=16384, out_features=4096, bias=True)
    (act): GELUActivation()
  )
)
gpt_neox.layers.25.input_layernorm LayerNorm((4096,), eps=1e-05, elementwise_affine=True)
gpt_neox.layers.25.post_attention_layernorm LayerNorm((4096,), eps=1e-05, elementwise_affine=True)
gpt_neox.layers.25.post_attention_dropout Dropout(p=0.0, inplace=False)
gpt_neox.layers.25.post_mlp_dropout Dropout(p=0.0, inplace=False)
gpt_neox.layers.25.attention GPTNeoXAttention(
  (rotary_emb): GPTNeoXRotaryEmbedding()
  (query_key_value): Linear(in_features=4096, out_features=12288, bias=True)
  (dense): Linear(in_features=4096, out_features=4096, bias=True)
  (attention_dropout): Dropout(p=0.0, inplace=False)
)
gpt_neox.layers.25.attention.rotary_emb GPTNeoXRotaryEmbedding()
gpt_neox.layers.25.attention.query_key_value Linear(in_features=4096, out_features=12288, bias=True)
gpt_neox.layers.25.attention.dense Linear(in_features=4096, out_features=4096, bias=True)
gpt_neox.layers.25.attention.attention_dropout Dropout(p=0.0, inplace=False)
gpt_neox.layers.25.mlp GPTNeoXMLP(
  (dense_h_to_4h): Linear(in_features=4096, out_features=16384, bias=True)
  (dense_4h_to_h): Linear(in_features=16384, out_features=4096, bias=True)
  (act): GELUActivation()
)
gpt_neox.layers.25.mlp.dense_h_to_4h Linear(in_features=4096, out_features=16384, bias=True)
gpt_neox.layers.25.mlp.dense_4h_to_h Linear(in_features=16384, out_features=4096, bias=True)
gpt_neox.layers.25.mlp.act GELUActivation()
gpt_neox.layers.26 GPTNeoXLayer(
  (input_layernorm): LayerNorm((4096,), eps=1e-05, elementwise_affine=True)
  (post_attention_layernorm): LayerNorm((4096,), eps=1e-05, elementwise_affine=True)
  (post_attention_dropout): Dropout(p=0.0, inplace=False)
  (post_mlp_dropout): Dropout(p=0.0, inplace=False)
  (attention): GPTNeoXAttention(
    (rotary_emb): GPTNeoXRotaryEmbedding()
    (query_key_value): Linear(in_features=4096, out_features=12288, bias=True)
    (dense): Linear(in_features=4096, out_features=4096, bias=True)
    (attention_dropout): Dropout(p=0.0, inplace=False)
  )
  (mlp): GPTNeoXMLP(
    (dense_h_to_4h): Linear(in_features=4096, out_features=16384, bias=True)
    (dense_4h_to_h): Linear(in_features=16384, out_features=4096, bias=True)
    (act): GELUActivation()
  )
)
gpt_neox.layers.26.input_layernorm LayerNorm((4096,), eps=1e-05, elementwise_affine=True)
gpt_neox.layers.26.post_attention_layernorm LayerNorm((4096,), eps=1e-05, elementwise_affine=True)
gpt_neox.layers.26.post_attention_dropout Dropout(p=0.0, inplace=False)
gpt_neox.layers.26.post_mlp_dropout Dropout(p=0.0, inplace=False)
gpt_neox.layers.26.attention GPTNeoXAttention(
  (rotary_emb): GPTNeoXRotaryEmbedding()
  (query_key_value): Linear(in_features=4096, out_features=12288, bias=True)
  (dense): Linear(in_features=4096, out_features=4096, bias=True)
  (attention_dropout): Dropout(p=0.0, inplace=False)
)
gpt_neox.layers.26.attention.rotary_emb GPTNeoXRotaryEmbedding()
gpt_neox.layers.26.attention.query_key_value Linear(in_features=4096, out_features=12288, bias=True)
gpt_neox.layers.26.attention.dense Linear(in_features=4096, out_features=4096, bias=True)
gpt_neox.layers.26.attention.attention_dropout Dropout(p=0.0, inplace=False)
gpt_neox.layers.26.mlp GPTNeoXMLP(
  (dense_h_to_4h): Linear(in_features=4096, out_features=16384, bias=True)
  (dense_4h_to_h): Linear(in_features=16384, out_features=4096, bias=True)
  (act): GELUActivation()
)
gpt_neox.layers.26.mlp.dense_h_to_4h Linear(in_features=4096, out_features=16384, bias=True)
gpt_neox.layers.26.mlp.dense_4h_to_h Linear(in_features=16384, out_features=4096, bias=True)
gpt_neox.layers.26.mlp.act GELUActivation()
gpt_neox.layers.27 GPTNeoXLayer(
  (input_layernorm): LayerNorm((4096,), eps=1e-05, elementwise_affine=True)
  (post_attention_layernorm): LayerNorm((4096,), eps=1e-05, elementwise_affine=True)
  (post_attention_dropout): Dropout(p=0.0, inplace=False)
  (post_mlp_dropout): Dropout(p=0.0, inplace=False)
  (attention): GPTNeoXAttention(
    (rotary_emb): GPTNeoXRotaryEmbedding()
    (query_key_value): Linear(in_features=4096, out_features=12288, bias=True)
    (dense): Linear(in_features=4096, out_features=4096, bias=True)
    (attention_dropout): Dropout(p=0.0, inplace=False)
  )
  (mlp): GPTNeoXMLP(
    (dense_h_to_4h): Linear(in_features=4096, out_features=16384, bias=True)
    (dense_4h_to_h): Linear(in_features=16384, out_features=4096, bias=True)
    (act): GELUActivation()
  )
)
gpt_neox.layers.27.input_layernorm LayerNorm((4096,), eps=1e-05, elementwise_affine=True)
gpt_neox.layers.27.post_attention_layernorm LayerNorm((4096,), eps=1e-05, elementwise_affine=True)
gpt_neox.layers.27.post_attention_dropout Dropout(p=0.0, inplace=False)
gpt_neox.layers.27.post_mlp_dropout Dropout(p=0.0, inplace=False)
gpt_neox.layers.27.attention GPTNeoXAttention(
  (rotary_emb): GPTNeoXRotaryEmbedding()
  (query_key_value): Linear(in_features=4096, out_features=12288, bias=True)
  (dense): Linear(in_features=4096, out_features=4096, bias=True)
  (attention_dropout): Dropout(p=0.0, inplace=False)
)
gpt_neox.layers.27.attention.rotary_emb GPTNeoXRotaryEmbedding()
gpt_neox.layers.27.attention.query_key_value Linear(in_features=4096, out_features=12288, bias=True)
gpt_neox.layers.27.attention.dense Linear(in_features=4096, out_features=4096, bias=True)
gpt_neox.layers.27.attention.attention_dropout Dropout(p=0.0, inplace=False)
gpt_neox.layers.27.mlp GPTNeoXMLP(
  (dense_h_to_4h): Linear(in_features=4096, out_features=16384, bias=True)
  (dense_4h_to_h): Linear(in_features=16384, out_features=4096, bias=True)
  (act): GELUActivation()
)
gpt_neox.layers.27.mlp.dense_h_to_4h Linear(in_features=4096, out_features=16384, bias=True)
gpt_neox.layers.27.mlp.dense_4h_to_h Linear(in_features=16384, out_features=4096, bias=True)
gpt_neox.layers.27.mlp.act GELUActivation()
gpt_neox.layers.28 GPTNeoXLayer(
  (input_layernorm): LayerNorm((4096,), eps=1e-05, elementwise_affine=True)
  (post_attention_layernorm): LayerNorm((4096,), eps=1e-05, elementwise_affine=True)
  (post_attention_dropout): Dropout(p=0.0, inplace=False)
  (post_mlp_dropout): Dropout(p=0.0, inplace=False)
  (attention): GPTNeoXAttention(
    (rotary_emb): GPTNeoXRotaryEmbedding()
    (query_key_value): Linear(in_features=4096, out_features=12288, bias=True)
    (dense): Linear(in_features=4096, out_features=4096, bias=True)
    (attention_dropout): Dropout(p=0.0, inplace=False)
  )
  (mlp): GPTNeoXMLP(
    (dense_h_to_4h): Linear(in_features=4096, out_features=16384, bias=True)
    (dense_4h_to_h): Linear(in_features=16384, out_features=4096, bias=True)
    (act): GELUActivation()
  )
)
gpt_neox.layers.28.input_layernorm LayerNorm((4096,), eps=1e-05, elementwise_affine=True)
gpt_neox.layers.28.post_attention_layernorm LayerNorm((4096,), eps=1e-05, elementwise_affine=True)
gpt_neox.layers.28.post_attention_dropout Dropout(p=0.0, inplace=False)
gpt_neox.layers.28.post_mlp_dropout Dropout(p=0.0, inplace=False)
gpt_neox.layers.28.attention GPTNeoXAttention(
  (rotary_emb): GPTNeoXRotaryEmbedding()
  (query_key_value): Linear(in_features=4096, out_features=12288, bias=True)
  (dense): Linear(in_features=4096, out_features=4096, bias=True)
  (attention_dropout): Dropout(p=0.0, inplace=False)
)
gpt_neox.layers.28.attention.rotary_emb GPTNeoXRotaryEmbedding()
gpt_neox.layers.28.attention.query_key_value Linear(in_features=4096, out_features=12288, bias=True)
gpt_neox.layers.28.attention.dense Linear(in_features=4096, out_features=4096, bias=True)
gpt_neox.layers.28.attention.attention_dropout Dropout(p=0.0, inplace=False)
gpt_neox.layers.28.mlp GPTNeoXMLP(
  (dense_h_to_4h): Linear(in_features=4096, out_features=16384, bias=True)
  (dense_4h_to_h): Linear(in_features=16384, out_features=4096, bias=True)
  (act): GELUActivation()
)
gpt_neox.layers.28.mlp.dense_h_to_4h Linear(in_features=4096, out_features=16384, bias=True)
gpt_neox.layers.28.mlp.dense_4h_to_h Linear(in_features=16384, out_features=4096, bias=True)
gpt_neox.layers.28.mlp.act GELUActivation()
gpt_neox.layers.29 GPTNeoXLayer(
  (input_layernorm): LayerNorm((4096,), eps=1e-05, elementwise_affine=True)
  (post_attention_layernorm): LayerNorm((4096,), eps=1e-05, elementwise_affine=True)
  (post_attention_dropout): Dropout(p=0.0, inplace=False)
  (post_mlp_dropout): Dropout(p=0.0, inplace=False)
  (attention): GPTNeoXAttention(
    (rotary_emb): GPTNeoXRotaryEmbedding()
    (query_key_value): Linear(in_features=4096, out_features=12288, bias=True)
    (dense): Linear(in_features=4096, out_features=4096, bias=True)
    (attention_dropout): Dropout(p=0.0, inplace=False)
  )
  (mlp): GPTNeoXMLP(
    (dense_h_to_4h): Linear(in_features=4096, out_features=16384, bias=True)
    (dense_4h_to_h): Linear(in_features=16384, out_features=4096, bias=True)
    (act): GELUActivation()
  )
)
gpt_neox.layers.29.input_layernorm LayerNorm((4096,), eps=1e-05, elementwise_affine=True)
gpt_neox.layers.29.post_attention_layernorm LayerNorm((4096,), eps=1e-05, elementwise_affine=True)
gpt_neox.layers.29.post_attention_dropout Dropout(p=0.0, inplace=False)
gpt_neox.layers.29.post_mlp_dropout Dropout(p=0.0, inplace=False)
gpt_neox.layers.29.attention GPTNeoXAttention(
  (rotary_emb): GPTNeoXRotaryEmbedding()
  (query_key_value): Linear(in_features=4096, out_features=12288, bias=True)
  (dense): Linear(in_features=4096, out_features=4096, bias=True)
  (attention_dropout): Dropout(p=0.0, inplace=False)
)
gpt_neox.layers.29.attention.rotary_emb GPTNeoXRotaryEmbedding()
gpt_neox.layers.29.attention.query_key_value Linear(in_features=4096, out_features=12288, bias=True)
gpt_neox.layers.29.attention.dense Linear(in_features=4096, out_features=4096, bias=True)
gpt_neox.layers.29.attention.attention_dropout Dropout(p=0.0, inplace=False)
gpt_neox.layers.29.mlp GPTNeoXMLP(
  (dense_h_to_4h): Linear(in_features=4096, out_features=16384, bias=True)
  (dense_4h_to_h): Linear(in_features=16384, out_features=4096, bias=True)
  (act): GELUActivation()
)
gpt_neox.layers.29.mlp.dense_h_to_4h Linear(in_features=4096, out_features=16384, bias=True)
gpt_neox.layers.29.mlp.dense_4h_to_h Linear(in_features=16384, out_features=4096, bias=True)
gpt_neox.layers.29.mlp.act GELUActivation()
gpt_neox.layers.30 GPTNeoXLayer(
  (input_layernorm): LayerNorm((4096,), eps=1e-05, elementwise_affine=True)
  (post_attention_layernorm): LayerNorm((4096,), eps=1e-05, elementwise_affine=True)
  (post_attention_dropout): Dropout(p=0.0, inplace=False)
  (post_mlp_dropout): Dropout(p=0.0, inplace=False)
  (attention): GPTNeoXAttention(
    (rotary_emb): GPTNeoXRotaryEmbedding()
    (query_key_value): Linear(in_features=4096, out_features=12288, bias=True)
    (dense): Linear(in_features=4096, out_features=4096, bias=True)
    (attention_dropout): Dropout(p=0.0, inplace=False)
  )
  (mlp): GPTNeoXMLP(
    (dense_h_to_4h): Linear(in_features=4096, out_features=16384, bias=True)
    (dense_4h_to_h): Linear(in_features=16384, out_features=4096, bias=True)
    (act): GELUActivation()
  )
)
gpt_neox.layers.30.input_layernorm LayerNorm((4096,), eps=1e-05, elementwise_affine=True)
gpt_neox.layers.30.post_attention_layernorm LayerNorm((4096,), eps=1e-05, elementwise_affine=True)
gpt_neox.layers.30.post_attention_dropout Dropout(p=0.0, inplace=False)
gpt_neox.layers.30.post_mlp_dropout Dropout(p=0.0, inplace=False)
gpt_neox.layers.30.attention GPTNeoXAttention(
  (rotary_emb): GPTNeoXRotaryEmbedding()
  (query_key_value): Linear(in_features=4096, out_features=12288, bias=True)
  (dense): Linear(in_features=4096, out_features=4096, bias=True)
  (attention_dropout): Dropout(p=0.0, inplace=False)
)
gpt_neox.layers.30.attention.rotary_emb GPTNeoXRotaryEmbedding()
gpt_neox.layers.30.attention.query_key_value Linear(in_features=4096, out_features=12288, bias=True)
gpt_neox.layers.30.attention.dense Linear(in_features=4096, out_features=4096, bias=True)
gpt_neox.layers.30.attention.attention_dropout Dropout(p=0.0, inplace=False)
gpt_neox.layers.30.mlp GPTNeoXMLP(
  (dense_h_to_4h): Linear(in_features=4096, out_features=16384, bias=True)
  (dense_4h_to_h): Linear(in_features=16384, out_features=4096, bias=True)
  (act): GELUActivation()
)
gpt_neox.layers.30.mlp.dense_h_to_4h Linear(in_features=4096, out_features=16384, bias=True)
gpt_neox.layers.30.mlp.dense_4h_to_h Linear(in_features=16384, out_features=4096, bias=True)
gpt_neox.layers.30.mlp.act GELUActivation()
gpt_neox.layers.31 GPTNeoXLayer(
  (input_layernorm): LayerNorm((4096,), eps=1e-05, elementwise_affine=True)
  (post_attention_layernorm): LayerNorm((4096,), eps=1e-05, elementwise_affine=True)
  (post_attention_dropout): Dropout(p=0.0, inplace=False)
  (post_mlp_dropout): Dropout(p=0.0, inplace=False)
  (attention): GPTNeoXAttention(
    (rotary_emb): GPTNeoXRotaryEmbedding()
    (query_key_value): Linear(in_features=4096, out_features=12288, bias=True)
    (dense): Linear(in_features=4096, out_features=4096, bias=True)
    (attention_dropout): Dropout(p=0.0, inplace=False)
  )
  (mlp): GPTNeoXMLP(
    (dense_h_to_4h): Linear(in_features=4096, out_features=16384, bias=True)
    (dense_4h_to_h): Linear(in_features=16384, out_features=4096, bias=True)
    (act): GELUActivation()
  )
)
gpt_neox.layers.31.input_layernorm LayerNorm((4096,), eps=1e-05, elementwise_affine=True)
gpt_neox.layers.31.post_attention_layernorm LayerNorm((4096,), eps=1e-05, elementwise_affine=True)
gpt_neox.layers.31.post_attention_dropout Dropout(p=0.0, inplace=False)
gpt_neox.layers.31.post_mlp_dropout Dropout(p=0.0, inplace=False)
gpt_neox.layers.31.attention GPTNeoXAttention(
  (rotary_emb): GPTNeoXRotaryEmbedding()
  (query_key_value): Linear(in_features=4096, out_features=12288, bias=True)
  (dense): Linear(in_features=4096, out_features=4096, bias=True)
  (attention_dropout): Dropout(p=0.0, inplace=False)
)
gpt_neox.layers.31.attention.rotary_emb GPTNeoXRotaryEmbedding()
gpt_neox.layers.31.attention.query_key_value Linear(in_features=4096, out_features=12288, bias=True)
gpt_neox.layers.31.attention.dense Linear(in_features=4096, out_features=4096, bias=True)
gpt_neox.layers.31.attention.attention_dropout Dropout(p=0.0, inplace=False)
gpt_neox.layers.31.mlp GPTNeoXMLP(
  (dense_h_to_4h): Linear(in_features=4096, out_features=16384, bias=True)
  (dense_4h_to_h): Linear(in_features=16384, out_features=4096, bias=True)
  (act): GELUActivation()
)
gpt_neox.layers.31.mlp.dense_h_to_4h Linear(in_features=4096, out_features=16384, bias=True)
gpt_neox.layers.31.mlp.dense_4h_to_h Linear(in_features=16384, out_features=4096, bias=True)
gpt_neox.layers.31.mlp.act GELUActivation()
gpt_neox.final_layer_norm LayerNorm((4096,), eps=1e-05, elementwise_affine=True)
embed_out Linear(in_features=4096, out_features=50432, bias=False)
…
